mlp_model.pth (torch, 440156 bytes, 6 tensors)

fc1.weight f4 [128, 784]
0.0051799635 0.012446961 -0.0019784803 0.035540815 0.056675855 0.021258157 0.015139807 0.05052128
0.025083914 0.047498185 0.01993363 0.04964864 -0.00097263244 -0.011260687 -0.0032867454 0.05160974
0.01792042 0.050445873 0.003211169 0.050586935 0.023142267 0.03397886 0.03742205 -0.00024177777
0.0075426735 0.038501482 -0.008898638 -0.010857757 0.040688764 -0.00226806 -0.010622441 0.006704289
0.05329027 0.040955033 -0.002845104 0.05327688 0.00075249886 0.003140232 0.036238138 0.040061098
-0.004257138 -0.00037483143 0.018319448 0.046240788 0.03556492 0.047405686 0.053607993 0.046184108
0.005927774 0.029981012 0.017747676 0.030650996 0.0038028 0.018555146 0.053963948 -0.003967976
0.03825872 0.041286502 0.041532535 0.0010220301 0.027320812 0.019125083 -0.006398325 -0.005667629
-0.012544624 0.052846096 0.005797385 -0.015111386 0.0065969825 0.039557938 -0.010523478 0.038814563
-0.010048571 0.044466224 0.026006503 0.0035040074 0.0020070395 0.04873192 0.007643325 0.035536204
0.021670295 0.032251734 0.023654908 0.03947333 0.01735441 -0.00020350274 0.03277345 0.0057533695
-0.0044774106 0.02489827 0.030558506 -0.007194449 0.029524157 0.009856323 0.016879648 -0.06336292
-0.07405325 -0.04590725 -0.0725318 -0.08026359 -0.06380379 -0.00224969 0.00019752074 0.007825308
0.052075956 0.050672513 0.045342997 0.050386354 0.013060603 0.029528823 0.0146998465 0.03389999
0.008425854 0.013363187 0.036327723 0.005097895 0.033934444 0.028795663 0.04342375 -0.015733728
-0.015519888 -0.04121467 -0.08312168 -0.08526843 -0.09681325 -0.1425787 -0.122270815 -0.09168555
-0.09649517 -0.050701473 -0.009828273 0.04349616 0.035982564 0.03262909 0.07211057 0.04567396
0.046196613 -0.012898522 0.024312995 -0.0114875715 0.034688253 0.025621869 0.014623942 0.047219247
0.021453083 0.04769432 -0.01928325 0.038038537 0.0039782347 -0.06674347 -0.1381562 -0.1407549
-0.1651118 -0.18782972 -0.1914873 -0.13409586 -0.10791332 -0.07480967 -0.03078598 -0.0051999493
-0.027712088 0.0014964306 -0.008859441 0.044182986 0.01764782 0.022837028 0.0037835306 0.02825307
0.045121912 0.04791679 0.034641113 0.032194283 0.010961272 0.031793453 0.026159072 0.021160714
-0.024823166 -0.04568526 -0.1482158 -0.09699131 -0.11842709 -0.17405008 -0.10380304 -0.051042903
0.038449526 0.16391848 0.16417727 0.11193554 0.072704144 0.060380306 -0.028273843 -0.011998023
0.020151777 -0.020958267 0.04869331 0.037792787 0.054178335 -0.0017961212 0.017408952 0.044244256
0.013643744 -0.004921086 -0.008188989 -0.008640327 -0.067058794 -0.06336295 -0.098445915 -0.10168237
-0.0626654 -0.033509042 0.04351156 0.086552486 0.20439428 0.21378593 0.21235779 0.22347353
0.18308398 0.06890413 0.016892668 0.05752711 -0.009942211 -0.0292614 0.03335314 0.019699182
0.05431354 0.056559294 0.040321294 0.010629321 -0.01525776 0.005597551 -0.0068179755 -0.012012218
-0.024865733 0.032815766 -0.035981532 -0.061386205 -0.024457451 0.021996029 0.05899208 0.107155494
0.0141476495 0.07584624 0.14709541 0.15261266 -0.00306896 0.024376871 -0.0072700586 -0.025786959
-0.026729064 0.015439687 0.009236904 0.053801782 0.019443104 0.016705688 0.05012412 0.02865681
00000000: afbc a93b 57ee 4b3c 64a9 01bb 3f93 113d
00000010: f124 683d 9625 ae3c f40c 783c 67ef 4e3d
00000020: c87c cd3c 758d 423d da4b a33c 5f5c 4b3d
00000030: 42f8 7eba bf7e 38bc 7066 57bb bc64 533d
00000040: d8cd 923c 55a0 4e3d 7a72 523b 3f34 4f3d
00000050: da94 bd3c 6b2d 0b3d dd47 193d ba85 7db9
00000060: 8828 f73b bbb3 1d3d 98cb 11bc bce4 31bc
00000070: 43a9 263d bca3 14bb bf09 2ebc a7af db3b
00000080: e646 5a3d 77c0 273d ed74 3abb dc38 5a3d
00000090: 5843 453a 5acc 4d3b 716e 143d 1b17 243d
000000a0: 767f 8bbb 0685 c4b9 ab12 963c fb66 3d3d
000000b0: 86ac 113d 772c 423d 0e94 5b3d 8c2b 3d3d
000000c0: c63d c23b bd9a f53c 9363 913c cc17 fb3c
000000d0: 6638 793b f600 983c 4d09 5d3d cc05 82bb
000000e0: 2db5 1c3d 091c 293d 051e 2a3d a4f5 853a
000000f0: e5cf df3c 35ac 9c3c 0aa9 d1bb 85b7 b9bb
00000100: f787 4dbc 2675 583d fdf7 bd3b bf95 77bc
00000110: 802b d83b 8107 223d aa6a 2cbc 05fc 1e3d
00000120: c3a2 24bc 3722 363d 970b d53c 7da3 653b
00000130: 8988 033b 1f9b 473d db74 fa3b 698e 113d
00000140: e785 b13c 651a 043d f0c7 c13c c9ae 213d
00000150: d62a 8e3c 5a63 55b9 743d 063d c386 bc3b
00000160: 3eb7 92bb 75f7 cb3c d555 fa3c 6abf ebbb
00000170: a5dc f13c 6a7c 213c 3047 8a3c 6bc4 81bd
00000180: 3ba9 97bd 3e09 3cbd 8d8b 94bd 3d61 a4bd
00000190: 90ab 82bd 896f 13bb 921d 4f39 b835 003c
000001a0: 994d 553d fb8d 4f3d 94b9 393d ec61 4e3d
000001b0: 24fc 553c 6ee6 f13c a0d7 703c b7da 0a3d
000001c0: 980c 0a3c 45f1 5a3c 61cc 143d 3e0c a73b
000001d0: d8fe 0a3d e2e4 eb3c 1add 313d 05e4 80bc
000001e0: 2147 7ebc b7d0 28bd b33b aabd 37a1 aebd
000001f0: 0646 c6bd 2700 12be 1f69 fabd a2c5 bbbd
00000200: 429f c5bd 59ac 4fbd c406 21bc 0829 323d
00000210: 7462 133d 15a6 053d b5ae 933d 9e14 3b3d
00000220: a938 3d3d 5354 53bc 0c2c c73c 5e36 3cbc
00000230: 4515 0e3d f4e4 d13c 4299 6f3c f868 413d
00000240: 60be af3c 1f5b 433d e8f7 9dbc 4cce 1b3d
00000250: da5b 823b cdb0 88bd d278 0dbe 0d22 10be
00000260: 1113 29be 6f56 40be 3f15 44be 6d50 09be
00000270: a901 ddbd d035 99bd e132 fcbc 5664 aabb
00000280: 7604 e3bc e123 c43a 3027 11bc 38f9 343d
00000290: 2992 903c b814 bb3c 1cf5 773b fb72 e73c
000002a0: c1d1 383d 6544 443d d7e3 0d3d 27de 033d
000002b0: e896 333c da39 023d 8d4b d63c 3c59 ad3c
000002c0: f459 cbbc 7820 3bbd e2c5 17be 61a3 c6bd
000002d0: e789 f2bd 2f3a 32be b096 d4bd 5d12 51bd
000002e0: 407d 1d3d 3fda 273e 161e 283e 763e e53d
000002f0: e9e5 943d 5751 773d 8c9e e7bc 5b93 44bc
00000300: 5715 a53c acb0 abbc a372 473d 9ccc 1a3d
00000310: 1aea 5d3d d46b ebba 389d 8e3c 7739 353d
00000320: 038a 5f3c 1041 a1bb 1c2b 06bc 2890 0dbc
00000330: 1f56 89bd 6fc4 81bd 039e c9bd d93e d0bd
00000340: b856 80bd c740 09bd 2d39 323d 6e42 b13d
00000350: bc4c 513e b3ea 5a3e 5274 593e 3fd6 643e
00000360: 5e7a 3b3e 9c1d 8d3d 7e62 8a3c 8ca1 6b3d
00000370: a8e4 22bc 9bb5 efbc 4d9d 083d 2e60 a13c
00000380: e077 5e3d b8aa 673d f127 253d 9b26 2e3c
00000390: affb 79bc a96b b73b 5369 dfbb e5ce 44bc
000003a0: 39b3 cbbc d369 063d 5f61 13bd 1a70 7bbd
000003b0: fe5a c8bc 0431 b43c aea1 713d 5774 db3d
000003c0: 8bcb 673c 4655 9b3d 2ea0 163e 7e46 1c3e
000003d0: 9b20 49bb 01b2 c73c ac39 eebb 2c3f d3bc
000003e0: e9f6 dabc bef6 7c3c 6256 173c 425f 5c3d
000003f0: 2547 9f3c 5eda 883c f34e 4d3d b0c1 ea3c

fc1.bias f4 [128]
-0.05181936 -0.0023991812 0.017931476 0.0048962194 0.010987287 0.024226567 -0.0030208083 -0.021364328
0.0015263265 0.024022128 0.012083451 -0.0060952078 -0.022228997 -0.013801222 -0.012772997 -0.019414617
-0.033827733 -0.026133774 -0.017649759 0.0051428047 -0.030292204 0.024400724 0.041123755 0.03035441
0.01979022 0.018326854 -0.02681621 -0.019778632 0.002153573 -0.015716676 -0.017738031 -0.020310674
0.016066048 -0.008712993 -0.040094506 0.022016764 -0.0289564 -0.038080722 0.01629312 -0.027036851
0.022548769 0.019335832 0.024843063 -0.028044209 -0.021656645 0.02788665 0.01336376 -0.009187078
0.014145064 -0.003150979 -0.022077858 0.0055285846 -0.008853447 0.010236103 0.0018116012 -0.01158359
0.021233752 -0.012991807 -0.016613374 0.020161873 -0.002139392 -0.021307638 0.015925499 -0.011957276
-0.040443677 0.0071207536 -0.020352958 0.0122674545 0.010672244 0.009724926 -0.022180218 -0.022395462
0.0031820766 0.023375867 -0.019595413 0.0047655166 -0.023864249 -0.0028794105 -0.03511549 0.027409181
-0.023488611 -0.0337124 0.03920324 -0.02092788 0.0135871805 -0.01264065 -0.04775978 0.0050185844
-0.00017948072 -0.0036291855 -0.002832085 0.017652357 0.023158934 0.031653564 0.008890733 0.0057119736
0.017593775 -0.04002207 -0.031821612 -0.01246683 0.022403585 -0.05480645 -0.05070404 0.03019196
-0.030564472 0.024608478 0.020821363 -0.017606897 0.02710611 -0.024999883 -0.026096204 -0.043331947
-0.011428291 0.023454322 -0.017611327 0.00043383593 -0.0008611686 0.019975446 0.009812425 -0.021931283
-0.033881508 0.026294928 0.017415058 0.022169163 -0.030469822 -0.004683716 -0.009115582 0.017645437
00000000: 8a40 54bd 953b 1dbb 08e5 923c 7770 a03b
00000010: 0604 343c cb76 c63c c1f8 45bb 3e04 afbc
00000020: 050f c83a 0eca c43c abf9 453c 4fba c7bb
00000030: 9619 b6bc 851e 62bc d545 51bc 670b 9fbc
00000040: f38e 0abd 7f16 d6bc 3a96 90bc f984 a83b
00000050: 5b27 f8bc 07e4 c73c 6271 283d d0a9 f83c
00000060: 191f a23c 3322 963c abad dbbc cc06 a2bc
00000070: f622 0d3b 42c0 80bc 594f 91bc 9262 a6bc
00000080: f29c 833c f1c0 0ebc 233a 24bd 805c b43c
00000090: f935 edbc 88fa 1bbd 2679 853c 637c ddbc
000000a0: 32b8 b83c 2e66 9e3c ae83 cb3c f8bc e5bc
000000b0: 4769 b1bc 8b72 e43c acf3 5a3c 6685 16bc
000000c0: b3c0 673c a880 4ebb a0dc b4bc 2129 b53b
000000d0: 0c0e 11bc 54b5 273c 4073 ed3a 19c9 3dbc
000000e0: 68f2 ad3c 97db 54bc c518 88bc 832a a53c
000000f0: 0b35 0cbb 5b8d aebc 3176 823c 73e8 43bc
00000100: 45a8 25bd 3655 e93b 3fbb a6bc 6ffd 483c
00000110: a3da 2e3c 4c55 1f3c 4ab3 b5bc b076 b7bc
00000120: 638a 503b bf7e bf3c 8f86 a0bc 0d28 9c3b
00000130: f57e c3bc 7eb4 3cbb 43d5 0fbd 3889 e03c
00000140: 306b c0bc 0316 0abd 9493 203d f270 abbc
00000150: c49c 5e3c bb1a 4fbc c29f 43bd f072 a43b
00000160: fd32 3cb9 a1d7 6dbb 809a 39bb ad9b 903c
00000170: ceb7 bd3c 2ba7 013d 70aa 113c 822b bb3b
00000180: d220 903c 2fee 23bd 6157 02bd ad41 4cbc
00000190: b987 b73c ba7c 60bd 0aaf 4fbd 2155 f73c
000001a0: 5862 fabc b897 c93c 9091 aa3c 573c 90bc
000001b0: a20d de3c 8ecc ccbc b5c7 d5bc d77c 31bd
000001c0: ba3d 3bbc 4723 c03c a145 90bc 7974 e339
000001d0: 0cc0 61ba 8ca3 a33c 4bc4 203c 3ca9 b3bc
000001e0: 56c7 0abd 7668 d73c 06aa 8e3c 1b9c b53c
000001f0: d99b f9bc dc79 99bb 8659 15bc 2a8d 903c

fc2.weight f4 [64, 128]
0.13802956 0.05080344 -0.028590644 -0.2286714 0.044368673 -0.027031137 0.111689724 0.13299762
-0.062856846 -0.082088724 -0.020241322 0.21068399 0.086045004 0.010425426 0.048795886 -0.068428926
0.08024742 -0.07465217 0.07487887 -0.02272287 -0.05717953 -0.12011941 -0.013263602 -0.046787508
-0.062179305 0.041944053 0.08652819 0.19113348 0.04993949 -0.16985847 0.010231197 -0.07282209
0.06775994 -0.075451314 -0.029379271 -0.039873857 -0.0508228 0.046052568 0.012687002 -0.07517165
0.03117656 0.042324178 0.060577914 0.021685783 -0.046647776 -0.0026296452 -0.1625813 0.001532264
0.09228147 -0.060094588 0.0009739114 0.061279282 0.11742078 -0.054224607 -0.04294671 0.010117895
0.053233497 -0.06264483 -0.0103254225 0.1863368 -0.011077166 -0.106958225 0.058746077 0.07933213
-0.028480496 -0.120472394 0.029719971 -0.04758183 0.08517956 0.034074932 0.011211044 0.08133019
-0.0051980806 -0.058935422 0.09993505 0.010184774 0.08176019 0.059142392 -0.112260446 0.037631698
0.05461467 -0.02327614 -0.060864754 -0.045100674 -0.06692399 -0.0015891124 0.18332256 0.08717054
-0.09932485 0.050214387 -0.06550088 -0.14854239 -0.015513015 -0.057769157 -0.04251017 -0.009993764
0.043424528 0.05693548 0.056410428 0.05611805 0.071098156 -0.026019318 -0.020040447 0.049683683
0.039935276 -0.10226902 -0.058701985 -0.08271983 0.062191255 -0.05510248 -0.039652772 0.12704232
0.008964439 -0.0655103 -0.15179065 0.041747574 0.0038835208 -0.07706993 0.10065219 0.04702974
0.052322704 0.12996793 -0.11286329 0.0016163833 -0.024726573 -0.13348988 -0.04216609 0.06511604
0.12976387 -0.065024376 0.08882577 -0.18003726 0.0070553254 -0.18103108 0.16936827 0.028230317
-0.00039863965 -0.0035963152 0.04179454 -0.0052453764 0.03289146 0.032379836 -0.07910586 0.048927
-0.03121969 -0.009876989 0.1276323 -0.07693611 -0.03073789 -0.06419334 0.0011757967 -0.11676859
-0.023795575 0.07746397 -0.057074748 0.010312656 -0.029830422 -0.115833305 0.07752314 -0.009061219
-0.03550091 -0.030231595 0.06618627 0.013416468 0.09047455 -0.0016698717 -0.0807272 -0.08301039
0.08664093 0.029982993 -0.3095179 0.033092164 -0.09264689 -0.021830318 -0.008871611 -0.052826185
-0.0030493035 0.046693057 0.04140278 -0.035483073 0.061476987 -0.093670145 0.03941585 0.0046813623
0.018278705 -0.043104604 -0.08059917 0.09673822 -0.07162905 -0.11647706 -0.048103865 -0.024484554
0.021499408 -0.06379537 0.021419289 -0.039142642 0.0839775 -0.07165662 -0.05864956 0.1895349
-0.061454635 0.014664051 0.09139408 0.06374101 0.11676513 -0.0017025402 0.0018082592 0.09148807
0.030137807 -0.12819292 0.074949205 0.022572469 -0.0760935 0.07434695 0.055114366 0.057701394
0.025724133 -0.07010671 0.06512855 -0.025019512 0.06816408 0.07012452 -0.13231048 -0.05059383
0.092174165 -0.00785129 0.08200519 0.056646146 -0.07514106 0.14690962 -0.0888052 -0.055554055
0.04045482 -0.009640613 -0.18017328 0.019146817 0.027621754 0.08173016 -0.04569429 0.045521695
0.0072473707 0.019572098 0.03712872 -0.042938564 0.07575994 0.022840325 0.07015429 0.048670176
0.08901327 -0.10596798 0.17388487 -0.03747199 -0.016888717 -0.09829712 0.09444835 0.0072597372
00000000: 9f57 0d3e 4517 503d ed36 eabc d628 6abe
00000010: edbb 353d 6770 ddbc 95bd e43d 8730 083e
00000020: 17bb 80bd 221e a8bd 21d1 a5bc 8bbd 573e
00000030: 5d38 b03d 68cf 2a3c 32de 473d 7724 8cbd
00000040: c258 a43d 3de3 98bd 185a 993d 5025 babc
00000050: 1535 6abd 2a01 f6bd 944f 59bc 42a4 3fbd
00000060: baaf 7ebd 87cd 2b3d b135 b13d 7fb8 433e
00000070: 5a8d 4c3d 61ef 2dbe c0a0 273c bf23 95bd
00000080: b9c5 8a3d 3886 9abd ccac f0bc c552 23bd
00000090: 912b 50bd 9ea1 3c3d 25dd 4f3c 98f3 99bd
000000a0: fc65 ff3c 1e5c 2d3d 8c20 783d 62a6 b13c
000000b0: bd11 3fbd 2056 2cbb b67b 26be 40d6 c83a
000000c0: 11fe bc3d be25 76bd 164e 7f3a fcff 7a3d
000000d0: 4e7a f03d 9f1a 5ebd e4e8 2fbd 87c5 253c
000000e0: 5e0b 5a3d ef4b 80bd f62b 29bc 13cf 3e3e
000000f0: 007d 35bc ea0c dbbd ba9f 703d e278 a23d
00000100: ee4f e9bc 3bba f6bd 4c77 f33c 2ae5 42bd
00000110: 9f72 ae3d 2892 0b3d 87ae 373c 7190 a63d
00000120: a954 aabb 4566 71bd bfaa cc3d 0ade 263c
00000130: e371 a73d 4b3f 723d cee8 e5bd b223 1a3d
00000140: a2b3 5f3d 9bad bebc 524d 79bd 7cbb 38bd
00000150: 720f 89bd c449 d0ba e9b8 3b3e 7886 b23d
00000160: d46a cbbd 9aad 4d3d 5325 86bd 7f1b 18be
00000170: 4d2a 7ebc 5a9f 6cbd 251f 2ebd e2bc 23bc
00000180: ebdd 313d 2e35 693d 9f0e 673d 0adc 653d
00000190: e99b 913d 7726 d5bc dd2b a4bc 1e81 4b3d
000001a0: 2c93 233d 6c72 d1bd 7e71 70bd 0469 a9bd
000001b0: 42bc 7e3d 23b3 61bd f26a 22bd 6217 023e
000001c0: 95df 123c 442a 86bd 026f 1bbe 81ff 2a3d
000001d0: ab82 7e3b d7d6 9dbd bc22 ce3d 42a2 403d
000001e0: 5550 563d 5016 053e de24 e7bd d3dc d33a
000001f0: 628f cabc 92b1 08be 5ab6 2cbd 8f5b 853d
00000200: d2e0 043e 802b 85bd 49ea b53d b05b 38be
00000210: 5c30 e73b 3660 39be e06e 2d3e 4443 e73c
00000220: 8200 d1b9 28b0 6bbb c030 2b3d 68e1 abbb
00000230: 32b9 063d b8a0 043d 4102 a2bd ae67 483d
00000240: 6fc0 ffbc 18d3 21bc 0bb2 023e ae90 9dbd
00000250: 07ce fbbc cc77 83bd 311d 9a3a 5f24 efbd
00000260: f0ee c2bc 6ea5 9e3d 36c7 69bd 6af6 283c
00000270: ee5e f4bc 033a edbd 74c4 9e3d 8275 14bc
00000280: 6769 11bd 40a8 f7bc ab8c 873d bfd0 5b3c
00000290: b94a b93d 99df daba 4d54 a5bd 5a01 aabd
000002a0: cd70 b13d e59e f53c 2179 9ebe a68b 073d
000002b0: a7bd bdbd 7fd5 b2bc 3c5a 11bc 4560 58bd
000002c0: d3d6 47bb 3841 3f3d f695 293d b356 11bd
000002d0: 4bcf 7b3d 22d6 bfbd 8472 213d 1d66 993b
000002e0: 39bd 953c 748e 30bd 2d11 a5bd b01e c63d
000002f0: 40b2 92bd 868b eebd 8f08 45bd d593 c8bc
00000300: 871f b03c 26a7 82bd 8177 af3c 0954 20bd
00000310: 65fc ab3d b5c0 92bd 853a 70bd 7015 423e
00000320: dbb7 7bbd 7d41 703c d22c bb3d a68a 823d
00000330: 8e22 ef3d c527 dfba 1c03 ed3a 195e bb3d
00000340: 90e3 f63c 0145 03be f87e 993d e6e9 b83c
00000350: e9d6 9bbd 3743 983d 9abf 613d 4c58 6c3d
00000360: 6bbb d23c 1b94 8fbd 1e62 853d b8f5 ccbc
00000370: 9c99 8b3d 729d 8f3d 667c 07be 7a3b 4fbd
00000380: cfc5 bc3d b2a2 00bc 56f2 a73d ca05 683d
00000390: 8ee3 99bd 7a6f 163e 80df b5bd a68c 63bd
000003a0: f4b3 253d a9f3 1dbc 587f 38be c9d9 9c3c
000003b0: 0447 e23c 2462 a73d f029 3bbd f574 3a3d
000003c0: 5a7b ed3b aa55 a03c 4914 183d 59e0 2fbd
000003d0: 0728 9b3d a21b bb3c 0dad 8f3d 615a 473d
000003e0: 974c b63d be05 d9bd e00e 323e 3b7c 19bd
000003f0: 355a 8abc 0050 c9bd 236e c13d 17e3 ed3b

fc2.bias f4 [64]
-0.08336092 -0.0040267096 0.04663818 -0.08403098 -0.08368747 0.09083203 0.042881336 0.045097116
-0.015433366 0.14205736 -0.06495412 0.10001852 0.0248088 -0.1302613 0.062267233 -0.006815534
0.063823216 0.114979014 -0.014732446 -0.0443296 -0.036637783 -0.0010550367 0.052528422 0.07073268
-0.02191729 -0.038588088 0.07598686 0.033042867 -0.06793308 0.041432362 -0.008890127 0.014123741
0.016465751 -0.0037359043 0.07575933 0.008778997 0.058327302 -0.02788562 -0.061647106 0.035672683
0.022688465 -0.089268155 0.011117078 -0.048167527 0.008310978 -0.04816776 -0.035405144 0.03949398
0.03955425 0.048323154 -0.049503937 0.024642719 0.026624769 0.07775264 0.088116586 -0.042718567
0.12168383 0.08301851 -0.1137414 0.049224284 -0.0968548 -0.018993564 0.05397219 0.039611142
00000000: 21b9 aabd 7df2 83bb ad07 3f3d 6f18 acbd
00000010: 5664 abbd 2506 ba3d 57a4 2f3d c1b7 383d
00000020: 3bdc 7cbc 7c77 113e aa06 85bd 83d6 cc3d
00000030: d33b cb3c 3863 05be ed0b 7f3d d854 dfbb
00000040: bfb5 823d 1e7a eb3d 5b60 71bc f492 35bd
00000050: 8011 16bd 2849 8aba 0b28 573d 4cdc 903d
00000060: e38b b3bc 8b0e 1ebd 009f 9b3d f557 073d
00000070: 8020 8bbd fbb4 293d e5a7 11bc 4367 673c
00000080: 2fe3 863c 13d6 74bb b527 9b3d c8d5 0f3c
00000090: 9ce8 6e3d 6270 e4bc ad81 7cbd 851d 123d
000000a0: 29dd b93c 39d2 b6bd 6824 363c 504b 45bd
000000b0: c52a 083c 8f4b 45bd fc04 11bd 71c4 213d
000000c0: a303 223d 80ee 453d a4c4 4abd 87df c93c
000000d0: 301c da3c c73c 9f3d 7876 b43d aaf9 2ebd
000000e0: 5f35 f93d 9c05 aa3d 40f1 e8bd 679f 493d
000000f0: cf5b c6bd 6498 9bbc f111 5d3d 4b3f 223d

fc3.weight f4 [10, 64]
-0.17710054 -0.076171234 0.18455432 0.098344035 -0.022811076 -0.1453685 -0.049966574 -0.19234592
-0.19702634 0.025726164 0.047981765 0.053503204 0.0069135334 0.11269611 -0.18552612 0.03887526
-0.22766046 -0.099965125 0.098773606 -0.22226544 0.13547972 -0.06033001 0.02212542 0.017507985
0.10838426 0.02692553 0.040948834 0.140125 0.18112902 -0.10870415 0.08341927 -0.23873429
0.11098185 0.11919646 -0.16356581 0.09447656 0.007720327 0.11982063 -0.10489251 0.05628497
0.2130912 -0.0609827 -0.09897581 0.0344209 -0.24900724 0.19002143 -0.2105902 0.08849296
-0.24586892 -0.06737256 0.023943536 -0.34683037 0.03503324 0.07952515 0.07726055 -0.26504573
-0.06837852 0.015747616 -0.052051358 0.18064195 0.08864543 0.0671309 0.17983578 -0.02442043
-0.27486795 -0.23285596 0.032370847 0.027009107 -0.076874085 -0.20196016 0.2401082 0.02347007
-0.11023528 0.15004243 -0.12988912 -0.22880843 -0.10317769 0.1825245 0.12114981 0.044296216
0.16778116 -0.2193129 0.105813 0.18925178 -0.2043364 -0.06791695 -0.17241406 0.008398488
0.2494732 0.124246314 -0.09652391 -0.12445205 -0.19609945 -0.15484959 -0.20713438 -0.042717785
0.19525428 0.005602849 0.04209156 -0.21320036 -0.31515265 -0.17590833 -0.033977598 0.07729037
-0.103779405 0.072357655 -0.13004543 -0.035992034 0.15289825 -0.21170868 0.076068975 0.01792461
0.101169564 -0.273148 0.20464446 -0.05304976 -0.04577844 -0.06279826 -0.29821745 0.030351585
-0.21132576 0.10327385 -0.03757931 0.08765994 -0.08908382 0.09615885 0.029474018 -0.14888749
-0.08755527 -0.041221566 0.12695153 -0.087520994 -0.067269914 -0.21802266 0.006623558 0.2093749
-0.24397302 -0.18177415 -0.036320493 -0.07025558 -0.090688646 0.049293425 0.15616138 -0.039760973
-0.021604791 -0.16722044 -0.13472974 -0.07421295 -0.11321409 0.01806973 -0.15590943 -0.13562644
0.04964376 0.17563328 0.05073945 0.1495571 0.14611776 -0.12041765 -0.10668 -0.16368116
0.20685335 0.12680699 -0.0818462 -0.121149555 0.036668558 0.05121638 -0.032245357 -0.08724394
0.06183725 -0.07935815 0.004629444 0.029483428 0.12284397 0.03624628 -0.17347945 -0.12476519
0.17702228 0.27835017 0.2209109 0.10032328 0.01142222 0.057766493 -0.15356754 -0.12328865
0.1722423 0.034920786 -0.0072104847 -0.016108595 -0.02667601 -0.23660325 -0.28671744 0.1216401
0.13777408 0.00012112773 0.068646416 0.012871849 8.9662084e-05 -0.03354898 -0.2601502 0.1136269
-0.04645758 0.13782696 0.053880926 -0.07114947 -0.034883443 -0.05463656 0.007936729 0.03032759
0.11353933 -0.16580212 -0.17835723 -0.024728684 0.013839385 0.024998408 -0.106548525 0.090156384
0.10647814 -0.07141286 -0.070636675 0.025138779 -0.12507902 0.09548175 0.1776637 -0.13125968
-0.07373414 0.064671755 -0.033195607 0.23633224 0.10352309 0.20104335 0.023782311 -0.050319977
-0.36675575 -0.09378446 0.0861695 0.11651368 -0.10478848 -0.06841055 -0.010284196 -0.07457704
-0.22022356 -0.06993413 -0.1065357 0.13323429 0.20954703 0.17224948 -0.009398014 0.14942873
-0.13015097 0.115674496 -0.08165251 -0.21177374 -0.131324 -0.012983702 -0.016980637 0.04940484
00000000: d859 35be aaff 9bbd cffb 3c3e 9968 c93d
00000010: 4bde babc 7bdb 14be c0a9 4cbd 54f6 44be
00000020: 46c1 49be adbf d23c 8788 443d 2d26 5b3d
00000030: ec8a e23b 38cd e63d 8ffa 3dbe aa3b 1f3d
00000040: d31f 69be 84ba ccbd d149 ca3d 8d99 63be
00000050: 32bb 0a3e 9a1c 77bd 5e40 b53c e86c 8f3c
00000060: 91f8 dd3d ee92 dc3c f7b9 273d ee7c 0f3e
00000070: e379 393e 48a0 debd b9d7 aa3d c376 74be
00000080: 744a e33d 461d f43d cc7d 27be ed7c c13d
00000090: ccfa fc3b 8564 f53d e2d1 d6bd 128b 663d
000000a0: 9434 5a3e ffc8 79bd d4b3 cabd eefc 0c3d
000000b0: c1fb 7ebe fa94 423e f5a4 57be cc3b b53d
000000c0: 10c5 7bbe a0fa 89bd 3c25 c43c c093 b1be
000000d0: 047f 0f3d 15de a23d c73a 9e3d 13b4 87be
000000e0: 0a0a 8cbd 2501 813c ce33 55bd 34fa 383e
000000f0: bc8b b53d ed7b 893d df26 383e 5b0d c8bc
00000100: 7ebb 8cbe cb71 6ebe 4b97 043d 3442 dd3c
00000110: 2970 9dbd a5ce 4ebe edde 753e 4e44 c03c
00000120: 09c3 e1bd b9a4 193e a701 05be c24c 6abe
00000130: d34e d3bd b4e7 3a3e 641d f83d f36f 353d
00000140: d3ce 2b3e 9093 60be 7cb4 d83d 38cb 413e
00000150: 903d 51be 0b18 8bbd 508d 30be d099 093c
00000160: e775 7f3e da74 fe3d 54ae c5bd b7e0 febd
00000170: 4bce 48be e490 1ebe 091b 54be d8f8 2ebd
00000180: bdf0 473e 1b98 b73b 3368 2c3d 3251 5abe
00000190: b05b a1be 5021 34be 182c 0bbd 6a4a 9e3d
000001a0: 4c8a d4bd 4030 943d a12a 05be 626c 13bd
000001b0: 5c91 1c3e 29ca 58be 0dca 9b3d a2d6 923c
000001c0: fd31 cf3d 0eda 8bbe 518e 513e b54a 59bd
000001d0: 2c82 3bbd 609c 80bd f5af 98be e3a3 f83c
000001e0: c865 58be 3e81 d33d c3ec 19bd 0e87 b33d
000001f0: 9471 b6bd eeee c43d 7f73 f13c f675 18be
00000200: 2d50 b3bd f2d7 28bd 95ff 013e 353e b3bd
00000210: cfc4 89bd 5541 5fbe 6e0a d93b 6066 563e
00000220: 10d4 79be 0123 3abe ccc4 14bd 28e2 8fbd
00000230: f8ba b9bd e7e7 493d c5e8 1f3e 67dc 22bd
00000240: 88fc b0bc d63b 2bbe 98f6 09be f6fc 97bd
00000250: cadc e7bd f806 943c b9a6 1fbe a8e1 0abe
00000260: 4157 4b3d 36d9 333e 2bd4 4f3d 7f25 193e
00000270: e59f 153e 879d f6bd 0b7b dabd 099c 27be
00000280: 5dd1 533e b1d9 013e fb9e a7bd 421d f8bd
00000290: c531 163d 44c8 513d b513 04bd f3ac b2bd
000002a0: 0e49 7d3d 8786 a2bd 97b2 973b 3b87 f13c
000002b0: 9f95 fb3d fb76 143d 99a4 31be e484 ffbd
000002c0: 5445 353e ea83 8e3e 7836 623e 4b76 cd3d
000002d0: 4324 3b3c 8f9c 6c3d cf40 1dbe c27e fcbd
000002e0: 4960 303e 1909 0f3d ee45 ecbb 2cf6 83bc
000002f0: a687 dabc 1f48 72be a1cc 92be 721e f93d
00000300: a614 0d3e f405 fe38 7e96 8c3d 73e4 523c
00000310: f708 bc38 a86a 09bd 6832 85be 38b5 e83d
00000320: 4e4a 3ebd 8322 0d3e 3fb2 5c3d d0b6 91bd
00000330: f1e1 0ebd 96ca 5fbd 0e09 023c 9171 f83c
00000340: 4f87 e83d 08c8 29be 47a3 36be cf93 cabc
00000350: 96be 623c 76c9 cc3c 1d36 dabd e9a3 b83d
00000360: 3611 da3d e840 92bd f6a9 90bd d7ef cd3c
00000370: b714 00be f08b c33d 79ed 353e f068 06be
00000380: ed01 97bd a072 843d 1ef8 07bd 1401 723e
00000390: ea03 d43d 4fde 4d3e 1fd3 c23c 521c 4ebd
000003a0: 69c7 bbbe 1112 c0bd a379 b03d b99e ee3d
000003b0: 589b d6bd d51a 8cbd 0b7f 28bc d9bb 98bd
000003c0: 4982 61be a039 8fbd 642f dabd 926e 083e
000003d0: 7f93 563e 2b62 303e 21fa 19bc d803 193e
000003e0: 4c46 05be c0e6 ec3d 6e39 a7bd 37db 58be
000003f0: cc79 06be 98b9 54bc fa1a 8bbc bb5c 4a3d

fc3.bias f4 [10]
-0.065500155 0.049733385 -0.117914304 -0.027632233 0.054024376 0.08081407 -0.040644065 0.06279222
0.05841822 -0.054029923
00000000: f224 86bd 3cb5 4b3d 0e7d f1bd fe5c e2bc
00000010: aa48 5d3d d981 a53d 647a 26bd 3599 803d
00000020: f247 6f3d 7b4e 5dbd
